link_bot_notebooks/src/link_bot_notebooks/rand_forces_model_1.npz (npz, 1054 bytes, 4 tensors)

A f8 [2, 6]
000000 07 42 d8 63 c9 80 02 40 30 11 d1 dc 98 86 00 40
       2.3128841209766082 2.0657212497045734
000010 c4 0a a6 af c1 70 bd 3f dc 8c 5f 69 57 09 9d 3f
       0.11500177896781866 0.028355947309944493
000020 c9 df 2b c6 21 79 aa bf b2 45 06 77 63 09 bd 3f
       -0.051705413285105424 0.11342450767394643
000030 e1 40 47 c2 70 ae f2 bf 79 2a 88 ba 13 cc 0d 40
       -1.1675880040166293 3.724647004394964
000040 cb 5a 53 3d f3 e4 b2 bf 0c 49 c7 da e5 a6 ce bf
       -0.0738060021134103 -0.23946831877271568
000050 c5 76 97 93 39 88 b1 bf 46 c9 e2 e1 75 59 dd 3f
       -0.06848487714111247 0.45858523425262765

C f8 [2, 2]
000000 e9 b4 bb 59 7e cf 37 3f a7 e8 bb e1 bc 12 84 3f
       0.0003633197281790028 0.009801364554267456
000010 f9 5d f6 76 b0 69 aa bf 1e 1e 10 12 81 5d 97 3f
       -0.05158759548356424 0.022817627646899756

B f8 [1, 2]
000000 e0 b2 81 f5 25 07 70 bf b2 7e 6a f0 3f f8 76 3f
       -0.003913067128547637 0.005607843172270742

D f8 [2, 2]
000000 48 d8 a5 c5 38 47 bd 3f 59 71 74 fe da 2a cb bf
       0.11436800790201673 -0.2122453443961472
000010 b9 be 93 be dc c5 c1 3f 96 bb 99 10 d6 2f b2 3f
       0.13885077767871737 0.07104242234502886
